checkpoint/ShuffleNet_final.pt (torch, 213088 bytes, 141 tensors)

features.init_block.conv.weight f4 [6, 3, 3, 3]
0.67242837 0.87468386 0.654337 0.004916061 -0.064704835 -0.06964344 -0.5385555 -0.7653783
-0.6489985 0.96253353 1.3561168 1.028886 -0.052730974 -0.07406287 -0.063241534 -0.9382166
-1.240625 -1.0336244 0.3838275 0.5503865 0.3629427 0.07460559 0.048126403 0.043563787
-0.3575088 -0.47204506 -0.40856344 -0.6834686 0.023042146 0.71294516 -0.88344735 -0.0140983155
0.82214713 -0.6938754 0.07194052 0.6496929 -1.1526556 0.07912419 1.1009859 -1.5538675
0.10516807 1.4679929 -1.2235423 0.094869606 1.1175202 -0.43851307 0.05890692 0.38289297
-0.5792041 0.09563345 0.5459772 -0.45993516 0.050774805 0.35859224 -0.71946263 -0.14975882
0.36615908 1.0536116 0.22281915 -1.0465319 -0.465478 -0.04077815 0.7769416 -1.608653
-0.53962564 0.65841997 1.9708678 0.74101186 -1.2487278 -0.37274718 -0.124387465 0.60969937
-0.80025756 -0.22112583 0.32915133 1.1169064 0.5172407 -0.5852249 -0.33384788 -0.2633879
0.23186865 -0.08215242 0.018103924 -0.08705256 0.044390287 0.15533686 0.009025691 -0.121882364
-0.06505668 -0.13775337 0.46096915 0.443469 0.49687594 0.4550251 0.4178157 0.46708673
0.36722723 0.30347145 0.40510535 -0.36884952 -0.49588764 -0.40425456 -0.53706485 -0.65506876
-0.49403363 -0.27926993 -0.25820437 -0.28809577 -0.086146116 -0.0030107736 -0.04321651 -0.23751724
-0.111408934 -0.07631737 -0.2635391 -0.15869617 -0.12137567 -0.2705148 -0.16140707 -0.13833478
-0.21452253 -0.022890529 -0.13887562 -0.32278702 -0.19075614 -0.22292908 -0.045429487 -0.053347804
-0.0136879375 -0.21685919 -0.20741713 -0.12253597 -0.10754647 -0.28036067 -0.018113997 0.43333757
0.4363448 0.54840213 0.37731668 0.5308683 0.5673609 0.37425658 0.53201574 0.5991145
-0.33361003 -0.3610118 -0.4127422 -0.37727466 -0.43911314 -0.46038598 -0.39439243 -0.47697002
-0.44914207 -0.10619083 -0.06788803 -0.10455658 -0.0818663 -0.105522655 -0.12647198 -0.09034691
-0.0795033 -0.09470976
00000000: 4424 2c3f 48eb 5f3f a182 273f e916 a13b
00000010: f883 84bd 38a1 8ebd c6de 09bf d5ef 43bf
00000020: c424 26bf 9968 763f 3c95 ad3f 89b2 833f
00000030: 6ffc 57bd 46ae 97bd c784 81bd f72e 70bf
00000040: cdcc 9ebf ce4d 84bf 0a85 c43e 21e6 0c3f
00000050: a0d3 b93e d1ca 983d 3120 453d f16f 323d
00000060: 650b b7be e4af f1be 3a2f d1be ccf7 2ebf
00000070: e2c2 bc3c 9383 363f 9b29 62bf 9ffc 66bc
00000080: 3c78 523f d1a1 31bf 8d55 933d 4652 263f
00000090: 388a 93bf dd0b a23d 1bed 8c3f 21e5 c6bf
000000a0: 5b62 d73d 31e7 bb3f 099d 9cbf ff4a c23d
000000b0: e70a 8f3f c984 e0be 6248 713d 8c0a c43e
000000c0: b846 14bf 78db c33d 29c5 0b3f 9f7c ebbe
000000d0: 3ef9 4f3d 6799 b73e b42e 38bf 605a 19be
000000e0: 3479 bb3e bfdc 863f b42a 643e c2f4 85bf
000000f0: 2253 eebe fd06 27bd a5e5 463f 57e8 cdbf
00000100: e824 0abf 368e 283f 6545 fc3f f4b2 3d3f
00000110: 50d6 9fbf b8d8 bebe dbbe febd 4215 1c3f
00000120: aedd 4cbf cf6e 62be 8686 a83e caf6 8e3f
00000130: e369 043f 4dd1 15bf 1cee aabe c7da 86be
00000140: fa6e 6d3e 873f a8bd ae4e 943c 9d48 b2bd
00000150: 97d2 353d a010 1f3e 7ee0 133c 769d f9bd
00000160: 703c 85bd 380f 0dbe 2604 ec3e 5e0e e33e
00000170: 8666 fe3e 0df9 e83e f0eb d53e fe25 ef3e
00000180: 3505 bc3e 9c60 9b3e f869 cf3e d8d9 bcbe
00000190: fce4 fdbe 74fa cebe 157d 09bf 96b2 27bf
000001a0: faf1 fcbe 78fc 8ebe 5d33 84be 4a81 93be
000001b0: 606d b0bd 6650 45bb cc03 31bd b837 73be
000001c0: 5e2a e4bd 484c 9cbd 99ee 86be 4081 22be
000001d0: cf93 f8bd ea80 8abe e547 25be a2a7 0dbe
000001e0: cbab 5bbe eb84 bbbc 6935 0ebe 5744 a5be
000001f0: 9455 43be 8547 64be 4514 3abd 3a83 5abd
00000200: 5f43 60bc 5610 5ebe 2865 54be 23f4 fabd
00000210: 5341 dcbd 6f8b 8fbe ce63 94bc 6cde dd3e
00000220: 9668 df3e 1564 0c3f a72f c13e fce6 073f
00000230: 903e 113f 8f9e bf3e 2f32 083f 915f 193f
00000240: efce aabe 8ad6 b8be f252 d3be 252a c1be
00000250: 70d3 e0be b6b7 ebbe ceed c9be 6a35 f4be
00000260: f3f5 e5be 947a d9bd e108 8bbd c321 d6bd
00000270: 85a9 a7bd 431c d8bd df81 01be cd07 b9bd
00000280: a0d2 a2bd 31f7 c1bd

features.init_block.bn.weight f4 [6]
0.57751316 0.521478 0.4095168 0.41930982 0.4259806 0.47829264
00000000: e7d7 133f 957f 053f 30ac d13e c7af d63e
00000010: 211a da3e c6e2 f43e

features.init_block.bn.bias f4 [6]
-0.0071862186 0.5572953 0.42638844 1.1632698 1.4717051 1.1024708
00000000: 5f7a ebbb e8aa 0e3f 964f da3e 06e6 943f
00000010: d560 bc3f c31d 8d3f

features.init_block.bn.running_mean f4 [6]
15.306906 26.606735 16.8516 -18.364025 -466.40018 4.034052
00000000: 16e9 7441 98da d441 14d0 8641 86e9 92c1
00000010: 3933 e9c3 f416 8140

features.init_block.bn.running_var f4 [6]
45946.496 56876.04 11669.512 9961.814 58249.96 20973.559
00000000: 7f7a 3347 0a2c 5e47 0c56 3646 42a7 1b46
00000010: f689 6347 1edb a346

features.stage1.unit1.compress_conv1.weight f4 [15, 6, 1, 1]
-0.13964204 0.07736136 -1.476339 0.013323835 -0.09890014 0.0071647917 0.5021199 0.26995945
0.33846992 0.080478355 -0.037639283 -0.0414015 -0.01328065 -0.01109872 -0.014503 0.48221537
-0.35524827 1.2881005 0.0073260055 0.0039325133 0.006603297 -1.2467203 0.05804155 0.47942922
-0.023571825 0.072291546 0.016670825 -0.017153235 0.93964934 0.0122844 0.07149443 -1.7673297
0.0714986 0.003867467 -0.02211023 -0.010336187 -0.4062469 -0.3213253 -0.30704907 -0.08382617
-0.07786351 -0.0577397 0.022766206 0.06519014 0.00018372496 -0.01330176 -1.3989738 -0.028668562
0.36578193 -1.1388263 5.068336e-05 0.009967196 0.21089508 -0.005619055 0.02891873 0.047966924
0.022165593 -0.157691 -1.0854872 0.57141596 0.6659396 -0.4139954 0.5200033 0.033244424
-0.14272955 0.02373666 0.079635024 0.03786894 0.036842726 0.14517708 0.525889 0.10937943
0.0031729923 0.30059674 0.010635571 0.1003059 0.46441254 0.14730507 -1.4929839 0.10289719
0.22553383 -0.048926268 -0.15561597 -0.019420398 -0.022531673 -0.0767926 -0.018990815 -0.095135495
1.1909955 0.3890668
00000000: 53fe 0ebe a26f 9e3d adf8 bcbf 374c 5a3c
00000010: 288c cabd a1c6 ea3b ee8a 003f 2038 8a3e
00000020: ee4b ad3e d6d1 a43d a62b 1abd 9f94 29bd
00000030: 1597 59bc 68d7 35bc fe9d 6dbc efe4 f63e
00000040: 1ae3 b5be 7ae0 a43f fd0e f03b 50dc 803b
00000050: 7860 d83b 8894 9fbf fabc 6d3d bf77 f53e
00000060: b319 c1bc 970d 943d 4191 883c f184 8cbc
00000070: dc8c 703f 8244 493c ac6b 923d dc37 e2bf
00000080: dc6d 923d 5475 7d3b 8320 b5bc 1c59 29bc
00000090: 98ff cfbe c084 a4be 8935 9dbe 0ead abbd
000000a0: e776 9fbd 7780 6cbd 3280 ba3c 6882 853d
000000b0: 4ba6 4039 a0ef 59bc 9311 b3bf 55da eabc
000000c0: c547 bb3e 0fc5 91bf d894 5438 734d 233c
000000d0: e1f4 573e 0d20 b8bb f9e6 ec3c f778 443d
000000e0: 9e94 b53c c079 21be 3ff1 8abf 5148 123f
000000f0: 057b 2a3f 34f7 d3be f01e 053f 4e2b 083d
00000100: b227 12be 6273 c23c b017 a33d 761c 1b3d
00000110: 66e8 163d 4da9 143e a9a0 063f 5302 e03d
00000120: faf1 4f3b d1e7 993e d140 2e3c 2e6d cd3d
00000130: 7bc7 ed3e 24d7 163e 191a bfbf c3bb d23d
00000140: 57f2 663e e966 48bd cb59 1fbe 8717 9fbc
00000150: 5894 b8bc 7045 9dbd a092 9bbc 66d6 c2bd
00000160: 8a72 983f c333 c73e

features.stage1.unit1.compress_bn1.weight f4 [15]
0.44743967 0.25157997 0.34372535 0.445484 0.09248531 0.45760128 0.23991628 0.3036444
0.3412557 0.16636796 0.123620965 0.12495585 0.1284652 0.5965303 0.20248847
00000000: d016 e53e 17cf 803e c5fc af3e 7b16 e43e
00000010: f068 bd3d b74a ea3e 9dac 753e 4777 9b3e
00000020: 11b9 ae3e 5d5c 2a3e fd2c fd3d dae8 ff3d
00000030: 628c 033e 36b6 183f 2359 4f3e

features.stage1.unit1.compress_bn1.bias f4 [15]
-0.1780927 0.3141987 0.5589261 0.2684226 0.26180705 -0.19888616 0.56048995 0.5413737
0.4546302 0.685779 0.57277346 0.41069898 0.2557076 -0.2090907 0.85160476
00000000: ef5d 36be a7de a03e c815 0f3f b06e 893e
00000010: 930b 863e d0a8 4bbe 457c 0f3f 7897 0a3f
00000020: 4ac5 e83e 368f 2f3f 48a1 123f 2347 d23e
00000030: 1bec 823e df1b 56be c502 5a3f

features.stage1.unit1.compress_bn1.running_mean f4 [15]
-1.3613162 0.77858144 1.5683364 -0.88592297 1.5788946 -1.6967146 -1.0668362 -2.2271125
-0.6070615 -1.1730748 0.18194129 1.2672106 1.3596729 -0.75144047 2.1648593
00000000: 9c3f aebf 1d51 473f 3fbf c83f d9cb 62bf
00000010: 3819 ca3f f22d d9bf 178e 88bf 0389 0ec0
00000020: 6268 1bbf 5127 96bf d14e 3a3e f533 a23f
00000030: c309 ae3f 675e 40bf 0e8d 0a40

features.stage1.unit1.compress_bn1.running_var f4 [15]
0.6365191 0.19465676 0.49501535 0.23778357 0.15910882 1.1961697 0.18176483 0.33170423
0.46503255 0.22945026 0.24846664 0.07338753 0.10511347 0.5294974 0.28795335
00000000: eaf2 223f 1a54 473e a772 fd3e 897d 733e
00000010: 6ced 223e 171c 993f 8f20 3a3e 23d5 a93e
00000020: bf18 ee3e 02f5 6a3e 0a6e 7e3e 344c 963d
00000030: bb45 d73d 248d 073f 9f6e 933e

features.stage1.unit1.dw_conv2.weight f4 [15, 1, 3, 3]
-0.0068487003 -0.039149 -0.104633294 0.026827632 0.21060209 0.15282804 -0.020628752 0.30568254
0.42058146 -0.012978921 -0.010831849 0.02653316 0.025353167 -0.24401574 -0.29090774 -0.035629734
-0.2185722 -0.28572977 -0.12632078 -0.038641047 0.22077902 -0.21879126 0.17442697 0.49377733
-0.14025897 0.23686214 0.52083284 -0.05565252 -0.15189582 0.17439821 -0.5409937 -0.16329303
0.68196684 -0.15613124 -0.007892664 0.35273448 -0.1141371 -0.43319553 -0.19467384 -0.041097686
-0.15633428 -0.22533734 0.111057796 0.62330633 0.1621286 -0.20201622 -0.45287997 -0.22772151
0.40364447 0.6993541 0.54103786 -0.19300146 -0.397454 -0.19915155 0.011905914 0.06423614
-0.073189735 1.1102173 0.16639447 -1.266191 0.4681798 0.10906646 -0.5759815 0.40068817
0.1477076 -0.55836946 1.643756 0.36844423 -2.031428 0.7820834 0.25959387 -0.9993192
-0.14979109 0.30709764 -0.14245215 -0.22746634 0.5336893 -0.33919257 -0.22817825 0.4561067
-0.23158307 -0.21893965 0.19349584 0.44014928 0.29544398 0.0591061 -0.29536372 0.50320005
-0.2108677 -0.9073456 -0.05935099 0.17715417 0.18591219 0.20019463 0.40684187 0.23557861
0.25891486 0.23351341 -0.03250511 -0.051282212 -0.105375715 -0.14876853 -0.10398411 -0.2759392
-0.21121773 -0.055880338 -0.19231373 -0.10920066 0.012607121 0.0636865 0.07712545 -0.1561803
-0.555514 -0.32489783 0.27806303 -0.20696053 -0.109930456 0.2906606 1.009666 0.452813
-0.05624472 0.11343821 0.15336187 -0.29134965 -1.1009716 -0.5828736 0.3455829 1.4104232
0.7157479 -0.0060935165 0.028148342 0.134569 -0.38326418 -1.4472793 -0.72186947
00000000: 106b e0bb b45a 20bd fb49 d6bd 9fc5 db3c
00000010: 13a8 573e f47e 1c3e a1fd a8bc 6c82 9c3e
00000020: 7456 d73e 8aa5 54bc 1178 31bc 125c d93c
00000030: 72b1 cf3c 43df 79be dcf1 94be 7cf0 11bd
00000040: 64d1 5fbe 2c4b 92be 3c5a 01be 1346 1ebd
00000050: e513 623e d10a 60be fc9c 323e 62d0 fc3e
00000060: 0ca0 0fbe fd8b 723e 4d55 053f e6f3 63bd
00000070: 948a 1bbe 7295 323e 907e 0abf 4a36 27be
00000080: 6195 2e3f dee0 1fbe 3b50 01bc 9d99 b43e
00000090: b6c0 e9bd cecb ddbe 9458 47be 0c56 28bd
000000a0: 1816 20be d5be 66be 4572 e33d 0191 1f3f
000000b0: 0a05 263e 57dd 4ebe e2df e7be d42f 69be
000000c0: 7daa ce3e df08 333f 7581 0a3f 2da2 45be
000000d0: 177f cbbe 62ee 4bbe 0611 433c 3d8e 833d
000000e0: 80e4 95bd 9a1b 8e3f 5063 2a3e 8c12 a2bf
000000f0: 43b5 ef3e 3c5e df3d 8673 13bf 0027 cd3e
00000100: a940 173e 4df1 0ebf 9966 d23f b9a4 bc3e
00000110: eb02 02c0 9e36 483f 7de9 843e 62d3 7fbf
00000120: d662 19be e73b 9d3e fade 11be f0ec 68be
00000130: dd9f 083f a6aa adbe 8fa7 69be d186 e93e
00000140: 1d24 6dbe b731 60be c623 463e 3f5b e13e
00000150: 6f44 973e 3d19 723d ea39 97be b8d1 003f
00000160: b4ed 57be cd47 68bf 061a 73bd e767 353e
00000170: c45f 3e3e d2ff 4c3e 944d d03e 853b 713e
00000180: 7d90 843e 241e 6f3e 1424 05bd 4c0d 52bd
00000190: 39cf d7bd c756 18be 9ff5 d4bd e747 8dbe
000001a0: 7649 58be c8e2 64bd e4ed 44be 98a4 dfbd
000001b0: 198e 4e3c 116e 823d f3f3 9d3d bbed 1fbe
000001c0: 2a36 0ebf 0259 a6be 475e 8e3e 76ed 53be
000001d0: 3823 e1bd 77d1 943e bc3c 813f 1bd7 e73e
000001e0: dd60 66bd 4b52 e83d e50a 1d3e c82b 95be
000001f0: a3ec 8cbf 3437 15bf 3ef0 b03e bf88 b43f
00000200: 413b 373f 1fac c7bb 5a97 e63c 75cc 093e
00000210: 343b c4be 7340 b9bf 70cc 38bf

features.stage1.unit1.dw_bn2.weight f4 [15]
0.439429 0.577328 0.43547735 0.5814887 0.64259064 0.20519456 0.31092083 0.40652043
0.37361833 0.18584283 0.44489917 0.48123306 0.46255326 0.6911848 0.8471937
00000000: d6fc e03e c5cb 133f e3f6 de3e 72dc 143f
00000010: d280 243f 861e 523e 0431 9f3e 7223 d03e
00000020: e74a bf3e 954d 3e3e d3c9 e33e 2e64 f63e
00000030: c8d3 ec3e 7df1 303f b0e1 583f

features.stage1.unit1.dw_bn2.bias f4 [15]
-0.0554735 0.0005223427 0.04636634 0.089834005 0.059070002 0.12471231 0.038650308 0.17879136
0.06915038 -0.0506924 -0.007788228 -0.03398014 0.08411861 -0.0027115715 -0.0021010428
00000000: 2e38 63bd d3ed 083a a2ea 3d3d e4fa b73d
00000010: 63f3 713d 2b69 ff3d c94f 1e3d 1515 373e
00000020: b79e 8d3d d6a2 4fbd 6434 ffbb c22e 0bbd
00000030: 6146 ac3d 9fb4 31bb a6b1 09bb

features.stage1.unit1.dw_bn2.running_mean f4 [15]
0.05602576 -0.04286002 0.6695763 0.057395186 -0.110326126 0.028002672 -0.08601607 -0.1377085
0.040065043 -0.077416845 0.754364 -0.10947707 -0.25235087 -0.11658059 -0.14742716
00000000: 447b 653d fd8d 2fbd 5a69 2b3f 3717 6b3d
00000010: aaf2 e1bd dc65 e53c 3129 b0bd 7503 0dbe
00000020: 3e1b 243d b98c 9ebd 001e 413f 8435 e0bd
00000030: 2234 81be cec1 eebd 25f7 16be

features.stage1.unit1.dw_bn2.running_var f4 [15]
0.0038979186 0.002128704 0.017888129 0.041534282 0.044559374 0.0181999 0.1894757 0.5423054
0.024280854 0.036527444 0.085948095 0.00976258 0.008419518 0.15389949 0.5066939
00000000: 3974 7f3b ba81 0b3b 208a 923c da1f 2a3d
00000010: e483 363d f517 953c eb05 423e 87d4 0a3f
00000020: a4e8 c63c cd9d 153d 8e05 b03d 3af3 1f3c
00000030: 05f2 093c d497 1d3e b1b6 013f

features.stage1.unit1.expand_conv3.weight f4 [54, 5, 1, 1]
0.087151356 -0.06442123 0.06805988 0.19298826 -0.55203795 -1.8362502e-14 7.1683186e-16 5.8055354e-15
-1.1499503e-14 -6.317896e-15 0.04816265 -0.06086867 -0.23618577 -0.06591828 0.36174032 0.23371756
-0.004156692 -0.058201663 0.5269361 -0.00430817 0.3933875 -0.09097187 -0.12033082 -0.14104865
0.4149285 0.061554804 -0.04929693 0.0318751 -0.55104697 -0.003448115 0.56107366 0.030428128
-0.17631944 -0.04961523 0.12287325 0.05354166 -0.011937083 -0.15217006 -0.40668413 -0.5506571
4.877585e-16 -5.422398e-16 7.3844634e-16 3.1315372e-16 7.024098e-16 0.28671739 0.15051574 -0.49297014
0.155851 0.033247925 -0.003973264 -0.69001406 0.13073318 -0.14051798 0.018473519 2.522558e-18
8.367371e-18 8.7539374e-18 1.8791236e-18 -6.127384e-18 0.30332786 0.0472643 -0.25351655 -0.10953584
0.23567666 -0.055594612 -0.025769036 0.3733758 -0.15506063 0.008514247 -0.0047691953 0.76222795
-0.26274553 0.07119121 -0.030295698 -0.07491663 0.12962216 0.28772885 0.13585351 -0.012285684
0.38727286 -0.05237796 0.007559572 0.125337 0.50689465 0.0841733 -0.35234895 0.23679431
0.027684936 -0.064351924 0.007760261 -0.018450465 -0.49069756 -0.1642047 -0.004681045 0.0048918882
-0.55579 -0.00061489275 -0.018090684 0.048231814 0.8995341 0.01772426 -0.004628794 0.013512857
-0.00784844 -0.0028708468 0.007859194 0.87598825 -0.051019724 -0.0037625716 0.06803666 -0.04745813
-0.20450716 0.31959233 0.051240254 0.0016867539 -0.0065345396 0.0021064905 0.6822709 -0.015173142
-0.00015407035 0.0014105921 -0.048305016 -0.6257339 0.01898487 -0.0017071323 0.0114946095 0.5990987
-0.04512915 0.009875109 0.0021605133 -0.026600886 0.009325966 -0.010960958 -0.7264539 -0.029545473
0.041917477 -0.17113873 0.11232769 0.025929313 -0.03577789 -0.0053737196 -0.31081128 -0.30049464
0.06307285 0.066600345 0.023668304 -0.028287547 0.019149443 0.6889569 0.10931698 0.011137021
-0.21642984 0.3537968 -0.030014452 -0.021535106 -0.04537673 -0.6755964 -0.14760442 -0.037417125
-0.81645286 0.013178547 0.0142718125 -0.0016313231 0.022063782 -3.677432e-15 1.1411982e-16 1.6493217e-15
4.9862463e-16 -7.2451005e-16 0.0074670766 0.710695 -0.017916005 0.0132418815 -0.043446064 0.039566692
-0.8443548 0.02461338 -0.024702046 0.048146367 0.012300515 0.036163606 -0.52871925 0.055660967
0.020932676 -0.012363177 0.021385647 0.0032490573 -0.012739648 0.43021226 -0.74933994 0.1054822
0.098342694 0.07349145 0.0075140633 0.66878885 0.26705375 0.5903371 -0.020872891 0.1152759
1.1905666e-16 3.664132e-17 -2.0797294e-16 -3.8290525e-17 -2.2521456e-17 0.015713481 0.025634447 0.0723507
-0.36104316 0.00025581504 -0.10849288 0.057368226 -0.078779705 -0.37773117 0.13771898 -0.06816007
0.05860339 0.027082311 -0.49173766 0.8116277 0.014599878 0.020122318 -0.6799966 0.016546628
-0.08022132 0.18644653 -0.042113386 0.05541451 0.49485585 -0.5552366 1.6109407e-17 -2.3680627e-17
4.3862804e-17 1.5435e-16 -1.4702161e-17 -0.029565057 -0.052487247 -0.0067293006 0.6502581 0.6441976
0.3838091 0.3489212 -0.009249633 0.0190063 0.02988625 0.015987227 -0.029353809 0.043031726
-0.37617007 0.40185082 3.0964616e-17 -4.2840203e-17 -3.8578417e-17 1.6013773e-17 -2.2585945e-18 -0.009265175
00000000: 697c b23d 47ef 83bd fa62 8b3d b79e 453e
00000010: 5c52 0dbf 0c65 a5a8 db9c 4e26 9d2a d127
00000020: 1928 4fa8 4ea0 e3a7 3346 453d 6d51 79bd
00000030: afda 71be 2a00 87bd 0736 b93e a853 6f3e
00000040: dc34 88bb de64 6ebd 49e5 063f 8d2b 8dbb
00000050: 166a c93e 764f babd 0170 f6bd 0f6f 10be
00000060: 8271 d43e e420 7c3d 94eb 49bd 778f 023d
00000070: 6a11 0dbf c5f9 61bb 86a2 0f3f 6944 f93c
00000080: 158d 34be 5739 4bbd f8a4 fb3d 804e 5b3d
00000090: c193 43bc 78d2 1bbe e738 d0be ddf7 0cbf
000000a0: 3a96 0c26 3c4a 1ca6 b9d7 5426 5585 b425
000000b0: b274 4a26 9fcc 923e cc20 1a3e 9566 fcbe
000000c0: 6897 1f3e fa2e 083d 2732 82bb c3a4 30bf
000000d0: ebde 053e f2e3 0fbe c755 973c c621 3a22
000000e0: cb59 1a23 4d7b 2123 a4a7 0a22 810f e2a2
000000f0: ca4d 9b3e 3698 413d eccc 81be 5454 e0bd
00000100: 3955 713e 2db7 63bd 9619 d3bc 1d2b bf3e
00000110: 37c8 1ebe 577f 0b3c e946 9cbb 5f21 433f
00000120: 9586 86be b2cc 913d af2e f8bc e46d 99bd
00000130: acbb 043e 3251 933e 2f1d 0b3e e549 49bc
00000140: a148 c63e 468a 56bd 49b6 f73b 5858 003e
00000150: d9c3 013f 0d63 ac3d 1567 b4be 357a 723e
00000160: 85cb e23c f1ca 83bd ca49 fe3b 6e25 97bc
00000170: b63c fbbe 4725 28be 7463 99bb 224c a03b
00000180: 4148 0ebf c130 21ba ea32 94bc b98e 453d
00000190: de47 663f 7832 913c 23ad 97bb 0865 5d3c
000001a0: be96 00bc d124 3cbb d9c3 003c c440 603f
000001b0: 0ffa 50bd 7a95 76bb ce56 8b3d 7563 42bd
000001c0: 536a 51be 9ba1 a33e 4de1 513d 1216 dd3a
000001d0: b11f d6bb 0c0d 0a3b 4ea9 2e3f c598 78bc
000001e0: f28d 21b9 9ee3 b83a 7bdb 45bd 1930 20bf
000001f0: 2886 9b3c dbc1 dfba e353 3c3c 885e 193f
00000200: 58d9 38bd 36cb 213c 6697 0d3b 1aea d9bc
00000210: f0cb 183c 9795 33bc e2f8 39bf 5909 f2bc
00000220: a9b1 2b3d fe3e 2fbe 0f0c e63d b669 d43c
00000230: d68b 12bd 0716 b0bb a822 9fbe 6fda 99be
00000240: 572c 813d c365 883d 08e4 c13c 49bb e7bc
00000250: 4bdf 9c3c 7b5f 303f 95e1 df3d 0d78 363c
00000260: c99f 5dbe db24 b53e dee0 f5bc 646a b0bc
00000270: f3dc 39bd e3f3 2cbf 9d25 17be b342 19bd
00000280: 0e03 51bf d5ea 573c 52d4 693c 1fd2 d5ba
00000290: 1bbf b43c 537e 84a7 3a92 0325 3bb1 ed26
000002a0: 01b8 0f26 68d3 50a6 61ae f43b 1cf0 353f
000002b0: 96c4 92bc 7af4 583c 80f4 31bd af10 223d
000002c0: a327 58bf 00a2 c93c f25b cabc 2035 453d
000002d0: 1988 493c 4a20 143d 255a 07bf c1fc 633d
000002e0: 017b ab3c ec8e 4abc f430 af3c 23ee 543b
000002f0: f5b9 50bc c844 dc3e bed4 3fbf 0d07 d83d
00000300: e567 c93d af82 963d 8838 f63b bf35 2b3f
00000310: 45bb 883e 5520 173f a0fd aabc c515 ec3d
00000320: 5343 0925 6ffa 2824 c7c6 6fa5 7995 30a4
00000330: 49b9 cfa3 8fb9 803c 55ff d13c 9b2c 943d
00000340: a6da b8be ea1e 8639 8431 debd f2fa 6a3d
00000350: 4157 a1bd fb65 c1be 3406 0d3e 8297 8bbd
00000360: 1c0a 703d b9db dd3c 0ac5 fbbe d5c6 4f3f
00000370: 5434 6f3c 8fd7 a43c 4214 2ebf cb8c 873c
00000380: 134b a4bd d7eb 3e3e 167f 2cbd 53fa 623d
00000390: bf5d fd3e fc23 0ebf 4395 9423 4d6a daa3
000003a0: 0f48 4a24 14f4 3125 7f9a 87a3 6b32 f2bc
000003b0: defc 56bd 7781 dcbb 5177 263f 22ea 243f
000003c0: a082 c43e cda5 b23e c68b 17bc 1ab3 9b3c
000003d0: 02d4 f43c a5f7 823c 6677 f0bc 0942 303d
000003e0: 5d99 c0be 64bf cd3e 91cc 0e24 c990 45a4
000003f0: 5be9 31a4 74b3 9323 a5a7 26a2 f6cc 17bc

features.stage1.unit1.expand_bn3.weight f4 [54]
0.16450341 2.1137686e-15 0.27104515 0.33585528 0.29035634 0.31056172 0.24776778 0.57784945
3.33076e-16 0.30035356 0.3333728 1.9652824e-16 0.285773 0.11058055 0.41366136 0.14087507
0.36042178 0.13833468 0.32966566 0.14067645 0.34435168 0.47404912 0.41717976 0.48807177
0.3466043 0.70784473 0.6790657 0.11643721 0.07373975 0.44354168 0.2344782 0.50690085
0.3204047 -9.94762e-18 0.53007424 0.52986944 0.33117756 0.107268795 0.16113809 0.1603177
2.6747937e-16 0.13593686 0.116468914 0.5138814 0.9477174 0.38680828 -9.017981e-18 1.3406092
0.1526874 0.21312056 4.6297725e-16 0.30702007 0.53060746 -1.1461648e-17
00000000: 9573 283e 2650 1827 6ec6 8a3e 39f5 ab3e
00000010: 96a9 943e f201 9f3e d6b6 7d3e f1ed 133f
00000020: 5801 c025 f1c7 993e d7af aa3e e694 6225
00000030: d750 923e 0e78 e23d 6ccb d33e 8e41 103e
00000040: 3489 b83e 9ba7 0d3e f0c9 a83e 7d0d 103e
00000050: dd4e b03e 91b6 f23e 9698 d53e 8be4 f93e
00000060: 1e76 b13e 5035 353f 40d7 2d3f a276 ee3d
00000070: de04 973d e517 e33e 0e1b 703e 41c4 013f
00000080: 160c a43e 4f80 37a3 f2b2 073f 86a5 073f
00000090: 1b90 a93e beaf db3d 6201 253e 532a 243e
000000a0: fd30 9a25 0833 0b3e 4187 ee3d bb8d 033f
000000b0: 9c9d 723f bc0b c63e 365a 26a3 1599 ab3f
000000c0: 165a 1c3e 473c 5a3e b171 0526 bc31 9d3e
000000d0: e4d5 073f 1a6e 53a3

features.stage1.unit1.expand_bn3.bias f4 [54]
-0.022648707 -2.314311e-14 -0.21790995 0.11933759 -0.17117299 0.062926926 0.33446875 0.077047914
-1.818208e-15 0.3762716 -0.48553258 -1.3702681e-15 0.15604421 0.115532696 0.6106784 0.25728208
0.059709504 0.19498652 0.1009104 0.21707301 0.1048282 -0.023974808 -0.1533404 0.1465067
-0.10647373 -0.17255388 0.14090364 0.1437794 0.19605783 -0.025547381 0.14611296 0.28723112
-0.08595074 -1.6675471e-15 -0.099059135 0.20656233 -0.27895674 -0.029343495 0.23839253 -0.024011362
-1.6965712e-15 0.30791497 0.17093584 0.092165194 -0.03419021 0.10912549 -1.3625093e-16 -0.057134494
0.09834989 -0.009344798 -2.24023e-15 0.7484366 -0.81910545 -1.4570325e-16
00000000: c889 b9bc 6174 d0a8 c923 5fbe 4467 f43d
00000010: f947 2fbe d5df 803d 7d3f ab3e 4ccb 9d3d
00000020: 0504 03a7 aca6 c03e ba97 f8be f879 c5a6
00000030: 0eca 1f3e 689c ec3d 6b55 1c3f 7aba 833e
00000040: f491 743d 8caa 473e 1daa ce3d 6348 5e3e
00000050: 2bb0 d63d d166 c4bc 4405 1dbe da05 163e
00000060: e60e dabd f7b1 30be 0b49 103e e83a 133e
00000070: 62c3 483e be48 d1bc a39e 153e f50f 933e
00000080: f106 b0bd a151 f0a6 84df cabd 1385 533e
00000090: 6bd3 8ebe c561 f0bc 2c1d 743e 7ab3 c4bc
000000a0: 6e80 f4a6 08a7 9d3e ce09 2f3e 1bc1 bc3d
000000b0: 090b 0cbd 2f7d df3d 2d16 1da5 dc05 6abd
000000c0: ab6b c93d ec1a 19bc f36c 21a7 8b99 3f3f
000000d0: e5b0 51bf 02fc 27a5

features.stage1.unit1.expand_bn3.running_mean f4 [54]
-0.016998606 -1.1708747e-16 0.0018161064 0.031402808 -0.015674373 -0.051692348 -0.03654747 -0.0791511
7.648644e-17 -0.02265248 -0.0057156114 7.729819e-20 -0.024465187 0.006989448 -0.00682837 0.0290659
0.01992763 0.004769599 -0.09875736 -0.024795234 0.113214746 0.15344383 -0.01046195 0.048288018
-0.05280165 0.10383934 0.03696381 -0.026250415 -0.08431617 -0.029463664 0.0012968052 -0.13376035
-0.09987522 -8.706369e-17 0.028392058 -0.027614426 -0.04597706 -0.0011299013 0.01020606 0.035319384
-1.9488814e-17 0.0061081373 -0.0069275685 0.0006597176 -0.057845257 0.00431172 3.952558e-18 -0.0016742172
-0.015670696 0.0047923913 -2.0725775e-18 0.033372886 0.028648363 9.878701e-19
00000000: a940 8bbc 1ffe 06a5 6b0a ee3a 3ba0 003d
00000010: 8b67 80bc 5bbb 53bd cdb2 15bd f919 a2bd
00000020: a05d b024 b291 b9bc 064a bbbb e483 b61f
00000030: 376b c8bc bd07 e53b 85c0 dfbb 9c1b ee3c
00000040: 453f a33c 4c4a 9c3b 4c41 cabd 601f cbbc
00000050: 22dd e73d 6120 1d3e 9968 2bbc a8c9 453d
00000060: 8b46 58bd b8a9 d43d 5d67 173d 1c0b d7bc
00000070: f5ad acbd c85d f1bc 90f9 a93a 79f8 08be
00000080: 618b ccbd 55c1 c8a4 7696 e83c a637 e2bc
00000090: 7152 3cbd 3219 94ba 5137 273c 0fab 103d
000000a0: a9c0 b3a3 c526 c83b a800 e3bb e6f0 2c3a
000000b0: 26ef 6cbd 5449 8d3b dbd2 9122 6871 dbba
000000c0: d55f 80bc 7e09 9d3b e2ed 18a2 02b2 083d
000000d0: f9af ea3c adc8 9121

features.stage1.unit1.expand_bn3.running_var f4 [54]
0.13609506 1.1232756e-28 0.0731498 0.08644466 0.13346925 0.10816039 0.08603481 0.21969166
4.9129824e-31 0.06196311 0.16966334 5.915887e-35 0.06912039 0.023173787 0.19528319 0.050412465
0.1376281 0.051537007 0.026438788 0.02823264 0.033997882 0.13744998 0.03741584 0.06565211
0.048987318 0.06653849 0.018105755 0.009605197 0.008284065 0.01534661 0.041685667 0.059725188
0.028156785 7.875914e-31 0.046062313 0.06386308 0.05831526 0.12955637 0.10924716 0.22911292
1.3943616e-32 0.057841346 0.043674994 0.27293876 0.113181375 0.12580068 1.01477746e-32 0.8187465
0.067479104 0.06758383 6.7076357e-34 0.13113196 0.027643995 7.286646e-32
00000000: 815c 0b3e 6164 0e11 90cf 953d e609 b13d
00000010: 2aac 083e 3283 dd3d 0533 b03d daf6 603e
00000020: 766f 1f0d 08cd 7d3d 3abc 2d3e 7145 9d06
00000030: fe8e 8d3d f4d6 bd3c 51f8 473e 4d7d 4e3d
00000040: 61ee 0c3e 7818 533d 2896 d83c 2348 e73c
00000050: 5d41 0b3d b0bf 0c3e 5a41 193d 9d74 863d
00000060: eda6 483d 5545 883d 8552 943c 1e5f 1d3c
00000070: e3b9 073c 5970 7b3c 97be 2a3d 66a2 743d
00000080: 0fa9 e63c 8996 7f0d d6ab 3c3d a6ca 823d
00000090: fbdb 6e3d 6daa 043e fabc df3d 949c 6a3e
000000a0: 7dcc 900a 0ceb 6c3d 8de4 323d a1be 8b3e
000000b0: a3cb e73d e5d1 003e d3c2 520a 5f99 513f
000000c0: 7c32 8a3d 6469 8a3d 41e6 5e08 7547 063e
000000d0: a975 e23c 122c bd0b

features.stage1.unit2.compress_conv1.weight f4 [15, 20, 1, 1]
0.016347067 -4.187748e-15 -0.49563727 -0.062125094 0.32459792 -0.039216343 0.025154188 0.10451756
-8.7198304e-16 0.11226481 0.20860817 -3.954142e-18 0.15982655 -0.37514463 -0.10839543 -0.3460239
0.018883564 0.074977025 -0.013599291 0.027052324 -0.09140077 -1.5546168e-15 0.18919207 -0.11488085
-0.0036847834 -0.21111096 0.13475211 0.1272929 -6.093578e-16 2.216679e-06 -0.3055211 2.7213787e-18
0.18870907 -0.05103944 0.007552021 0.055656414 -0.10697568 0.29693127 -0.67020226 -0.069029264
-0.6674809 5.2859044e-15 -0.41102904 0.061592508 0.15559523 -0.0041480837 0.08340314 -0.12744689
1.07473254e-16 -0.14200561 0.06005619 -8.543124e-18 0.25075552 -0.16775566 -0.026241908 -0.06886224
0.16115208 -0.06789698 0.019667914 0.0037280605 0.28861567 -1.1473226e-14 0.09666631 0.30454046
-0.10870068 -0.42508116 -0.10219531 -0.05981796 -5.557694e-16 0.07777537 -0.015682893 5.2746677e-18
-0.057201657 0.030818075 0.02284184 -0.40196124 0.046326663 -0.14156224 0.118755564 0.08163871
-0.005268825 1.440167e-15 -0.010293705 -0.01618526 -0.008632851 0.003002101 -0.0018340307 0.0049876943
3.3209065e-17 -0.005864839 -0.008253346 -8.003905e-19 0.008157785 0.029622458 0.00027943 0.020558111
-0.0027536491 -0.00084404764 -0.011655874 0.952932 -0.015785329 0.62280136 0.13405615 0.182767
0.13526973 -0.2871632 -0.019331189 -0.14222643 -0.20917775 0.03225293 -0.2597501 -0.28235254
0.0053163473 -1.2070831e-15 0.041674726 -0.004542358 0.1347125 -0.3916484 0.121850125 0.31658033
-0.027348261 0.015540569 -0.13928887 0.521308 0.45485514 0.12724598 -0.0013133785 0.0067346646
-0.19536003 -0.028453777 -0.45194557 -0.0826849 -0.08959331 -4.5144553e-16 0.060191456 0.026753118
0.0038687794 -0.5887458 0.58427644 -0.4783158 0.08393227 -1.0891098 -0.2785155 0.020495666
-0.22513421 0.45229638 0.020001428 0.052401025 0.09987053 0.039361704 0.17374083 0.37313586
-0.01224997 6.4916096e-17 0.0836393 -0.06185188 0.11159148 -0.07834292 0.10539565 -0.17420912
-0.008710572 0.59974146 0.3581031 0.17819305 0.13177267 -0.2754689 0.0018660512 -0.27445528
-0.35538268 0.008080347 -0.5122695 -0.17668803 0.0042594173 -2.9899378e-15 0.027337747 0.008442798
-0.04922402 0.07722722 -0.09985737 0.09101163 1.0881858 -0.08282802 -0.28073803 0.14775376
0.15158573 0.02095203 0.008673905 0.014910238 -0.014076496 0.020962464 0.033961445 0.10331239
0.8481983 3.157711e-16 -0.04057961 -0.020803811 -0.18601231 0.10176435 -0.24358338 0.30224252
2.2644035e-17 -0.12480989 0.4050882 0.017226951 0.040350296 -0.102502584 -1.1678113e-16 -0.6877326
-0.05097574 0.069160245 -3.6469115e-18 0.0073964316 0.10520704 1.4415516e-16 0.023007168 0.0017168948
0.07361918 0.015159466 -0.051978264 0.009977829 -5.6634165e-17 0.5270139 0.10060081 -0.29022855
-0.0059075323 0.37145007 -2.9898676e-19 0.019825015 0.21290456 -0.2104461 1.4745839e-18 -0.1304789
0.08832673 -2.935194e-17 -0.075802 0.09893445 -0.019527033 0.003403084 -0.08370121 0.045486365
9.156689e-18 -0.035143815 -0.06989782 0.0033450155 -0.013119153 -0.05845524 4.6547888e-17 -0.44021803
0.06512232 0.07816057 -9.738496e-19 0.049861588 -0.0066617057 -1.6496288e-16 -0.022005389 0.030574625
00000000: 49ea 853c 28e1 96a7 2bc4 fdbe e276 7ebd
00000010: b331 a63e 51a1 20bd 2810 ce3c 4d0d d63d
00000020: fe54 7ba6 18eb e53d 619d 553e d1e1 91a2
00000030: 92a9 233e f512 c0be 6cfe ddbd 0b2a b1be
00000040: b4b1 9a3c 8e8d 993d 90cf 5ebc d69c dd3c
00000050: 5430 bbbd 3d0b e0a6 91bb 413e a746 ebbd
00000060: 687c 71bb 792d 58be 75fc 093e 1259 023e
00000070: aba2 2fa6 41c2 1436 436d 9cbe 64cd 4822
00000080: f33c 413e bb0e 51bd f276 f73b fbf7 633d
00000090: 1116 dbbd 6007 983e 6092 2bbf 375f 8dbd
000000a0: 07e0 2abf dd71 be27 6672 d2be 6d48 7c3d
000000b0: 5b54 1f3e a6ec 87bb 44cf aa3d 7081 02be
000000c0: 03d1 f724 eb69 11be 7bfd 753d c397 1da3
000000d0: 0763 803e 24c8 2bbe 45f9 d6bc a507 8dbd
000000e0: 0d05 253e 920d 8bbd 9b1e a13c 7a52 743b
000000f0: 6fc5 933e eaae 4ea8 fdf8 c53d baec 9b3e
00000100: 769e debd 3da4 d9be c64b d1bd ad03 75bd
00000110: 8b30 20a6 b148 9f3d 6979 80bc d499 c222
00000120: 494c 6abd 3076 fc3c cf1e bb3c ddcd cdbe
00000130: 07c1 3d3d b1f5 10be 1e36 f33d 3232 a73d
00000140: 1ca6 acbb c98c cf26 eea6 28bc f396 84bc
00000150: cd70 0dbc e6be 443b dc63 f0ba d06f a33b
00000160: 5826 1924 d62d c0bb 0b39 07bc cc3b 6ca1
00000170: 3ba8 053c ccaa f23c 7680 9239 7c69 a83c
00000180: 9176 34bb 1443 5dba 47f8 3ebc 5af3 733f
00000190: 3c50 81bc e96f 1f3f 0446 093e 4627 3b3e
000001a0: 2684 0a3e 0e07 93be 715c 9ebc cea3 11be
000001b0: b132 56be a61b 043d f7fd 84be 8390 90be
000001c0: c134 ae3b 82f5 ada6 1eb3 2a3d 10d8 94bb
000001d0: 13f2 093e 2486 c8be 8f8c f93d d116 a23e
000001e0: 7609 e0bc df9d 7e3c bea1 0ebe 7174 053f
000001f0: c6e2 e83e c54c 023e ab25 acba 76ae dc3b
00000200: 760c 48be e517 e9bc 6965 e7be b356 a9bd
00000210: b37c b7bd cd1e 02a6 518b 763d 5b29 db3c
00000220: 598b 7d3b 0bb8 16bf 2493 153f cfe5 f4be
00000230: afe4 ab3d f367 8bbf 9599 8ebe 87e6 a73c
00000240: 9589 66be 6493 e73e 09da a33c 75a2 563d
00000250: ec88 cc3d bd39 213d 1ee9 313e aa0b bf3e
00000260: 19b4 48bc b3af 9524 154b ab3d 6658 7dbd
00000270: 138a e43d 4172 a0bd add9 d73d e063 32be
00000280: c9b6 0ebc a888 193f 4a59 b73e 3d78 363e
00000290: 6aef 063e 420a 8dbe 4a96 f43a 6785 8cbe
000002a0: b8f4 b5be 6f63 043c 1824 03bf b5ed 34be
000002b0: 9592 8b3b 9e72 57a7 69f3 df3c a953 0a3c
000002c0: 209f 49bd 4e29 9e3d 0582 ccbd 4e64 ba3d
000002d0: ac49 8b3f bda1 a9bd e5bc 8fbe c34c 173e
000002e0: 4a39 1b3e 97a3 ab3c ff1c 0e3c 124a 743c
000002f0: 1aa1 66bc 79b9 ab3c 281b 0b3d 7295 d33d
00000300: 8623 593f 9707 b625 ce36 26bd c16c aabc
00000310: 037a 3ebe d469 d03d ec6d 79be 88bf 9a3e
00000320: b7da d023 549c ffbd b867 cf3e 891f 8d3c
00000330: 5a46 253d e0ec d1bd b5a3 06a5 3e0f 30bf
00000340: f0cb 50bd e3a3 8d3d 1b8c 86a2 c45d f23b
00000350: ca76 d73d 1833 2625 8779 bc3c 6e09 e13a
00000360: a7c5 963d 695f 783c 29e7 54bd 0c7a 233c
00000370: e996 82a4 62ea 063f cc07 ce3d d698 94be
00000380: f993 c1bb b42e be3e 9a7d b0a0 1268 a23c
00000390: a703 5a3e 2f7f 57be 349c d921 439c 05be
000003a0: a5e4 b43d a85c 07a4 143e 9bbd 259e ca3d
000003b0: 28f7 9fbc 4606 5f3b 8a6b abbd e94f 3a3d
000003c0: 3ee9 2823 f6f2 0fbd 9726 8fbd 0c38 5b3b
000003d0: b7f1 56bc c36e 6fbd 0caa 5624 4264 e1be
000003e0: da5e 853d a612 a03d ffb6 8fa1 aa3b 4c3d
000003f0: 704a dabb 7330 3ea5 a544 b4bc a377 fa3c

features.stage1.unit2.compress_bn1.weight f4 [15]
0.2527209 0.5827488 0.2517072 0.20915858 0.15274356 0.3161545 0.25452343 0.21535598
0.160604 0.31812188 0.23659705 0.20389614 0.45280907 0.4017994 0.32208574
00000000: a264 813e 062f 153f c4df 803e ab2d 563e
00000010: cf68 1c3e 01df a13e e550 823e 4786 5c3e
00000020: 6075 243e dfe0 a23e 7f46 723e 26ca 503e
00000030: 97d6 e73e a7b8 cd3e 6ce8 a43e

features.stage1.unit2.compress_bn1.bias f4 [15]
0.2681055 -0.006860672 0.38331005 0.30433375 0.13366419 0.20703897 0.33174172 0.39490584
0.3285636 0.25204068 0.3317639 0.39323878 0.12034828 0.19802749 0.29539743
00000000: 2045 893e 7dcf e0bb 3741 c43e a2d1 9b3e
00000010: 44df 083e 0602 543e 0dda a93e 1931 ca3e
00000020: 7d39 a83e 7a0b 813e f5dc a93e 9856 c93e
00000030: 2979 f63d b8c7 4a3e 553e 973e

features.stage1.unit2.compress_bn1.running_mean f4 [15]
-0.08149102 -0.010386129 -0.07399736 -0.09344769 0.21364927 -0.05834089 0.092072144 0.096785754
-0.14686024 0.17345048 -0.18967018 0.07854209 -0.4037167 -0.62273026 1.1547817
00000000: c4e4 a6bd 952a 2abc ee8b 97bd 8161 bfbd
00000010: e0c6 5a3e dbf6 6ebd 5290 bc3d 9c37 c63d
00000020: 8862 16be 019d 313e e638 42be adda a03d
00000030: f5b3 cebe 406b 1fbf e3cf 933f

features.stage1.unit2.compress_bn1.running_var f4 [15]
0.026946506 0.036248583 0.014892952 0.017628754 0.01518937 0.024775723 0.032999612 0.059998352
0.024537351 0.11635531 0.03146189 0.03808027 0.10635726 0.15935913 0.14575244
00000000: ebbe dc3c 6579 143d 9101 743c 2d6a 903c
00000010: d6dc 783c 75f6 ca3c 9a2a 073d d5c0 753d
00000020: 8e02 c93c b14b ee3d 2fde 003d 0ffa 1b3d
00000030: d6d1 d93d 0a2f 233e 2140 153e

features.stage1.unit2.dw_conv2.weight f4 [15, 1, 3, 3]
0.050057124 0.07247207 -0.03688496 0.037080485 -0.7106023 0.2910547 0.091791 0.04268951
0.03657059 -0.00655954 0.04041707 -0.0034539164 0.035639763 -0.6633116 0.5155016 0.03912404
-0.08387558 0.06957962 0.025071198 0.009384092 -0.089164056 -0.13358785 0.5680117 0.1289772
0.0025272123 -0.45358527 -0.02851793 -0.01115419 0.035371415 0.020218525 0.04095839 0.40780497
0.19752729 -0.036435973 0.12866224 0.045258567 0.058438804 0.117111 0.07310844 -0.034734257
-0.79930097 -0.2662452 0.04080278 -0.05442323 -0.00096413196 -0.021074563 0.052781723 -0.014309802
-0.12507392 0.5771275 -0.05904337 0.12571634 -0.7168647 0.059858236 0.05733328 -0.105248585
0.043278344 0.28456843 -0.72811633 0.14957182 -0.05606958 0.5213871 -0.13537769 0.020992123
0.07251837 0.014976397 -0.08508937 0.360186 -0.08350065 0.07853439 -0.6571646 0.009446675
-0.09520616 0.11708242 0.11993339 0.096386 0.007005232 -0.15983482 0.5602061 -0.82271445
0.057264738 0.0014894014 0.04233087 -0.0016493556 0.015865395 0.55354506 0.027784374 0.0012123579
-0.5942207 -0.05833485 0.007327945 0.2358814 -0.025463313 0.064156644 -0.9960011 0.13263133
-0.00912015 0.1828672 -0.07126651 -0.042018365 0.027923187 0.012515568 -0.028797615 0.9338073
-0.08844568 -0.06830494 0.17095348 0.012684126 -0.015690586 -0.22537443 -0.0064155445 -0.003044825
0.7014698 -0.08368752 0.011318608 -0.23605683 0.045249447 0.045105413 -0.034963958 -0.007119322
-0.118365146 -0.71930766 -0.30692512 -0.0043538576 -0.2749431 -0.18431783 -0.26520005 0.8275349
0.1667493 0.031286996 0.085731044 -0.11080503 0.23085788 -0.8446345 -0.10019348
00000000: b308 4d3d 3d6c 943d af14 17bd b5e1 173d
00000010: 08ea 35bf 1f05 953e ebfc bb3d 32db 2e3d
00000020: 0bcb 153d 69f1 d6bb 5f8c 253d 1a5b 62bb
00000030: 00fb 113d cace 29bf eaf7 033f 8840 203d
00000040: f6c6 abbd c37f 8e3d 1d62 cd3c bcbf 193c
00000050: a59b b6bd 41cb 08be 3769 113f 9912 043e
00000060: 969f 253b 543c e8be 6f9e e9bc 10c0 36bc
00000070: 9ee1 103d 52a1 a53c fcc3 273d d0cb d03e
00000080: 9844 4a3e e33d 15bd 09c0 033e 0c61 393d
00000090: 875d 6f3d e4d7 ef3d e1b9 953d 8245 0ebd
000000a0: fd9e 4cbf 4a51 88be d120 273d e5ea 5ebd
000000b0: cdbd 7cba 90a4 acbc a631 583d a973 6abc
000000c0: 6113 00be a1be 133f 76d7 71bd c9bb 003e
000000d0: 7284 37bf e92d 753d 4dd6 6a3d 928c d7bd
000000e0: a244 313d f4b2 913e d565 3abf 5b29 193e
000000f0: 37a9 65bd a079 053f 73a0 0abe acf7 ab3c
00000100: 8384 943d 905f 753c 5643 aebd 4d6a b83e
00000110: 6402 abbd a3d6 a03d f03b 28bf 3ac6 1a3c
00000120: 72fb c2bd e8c8 ef3d a39f f53d 0666 c53d
00000130: 258c e53b bdab 23be ab69 0f3f 6a9d 52bf
00000140: 6e8e 6a3d 0538 c33a 2263 2d3d 312f d8ba
00000150: 25f8 813c 21b5 0d3f 0e9c e33c fbe7 9e3a
00000160: d91e 18bf 86f0 6ebd 421f f03b e58a 713e
00000170: 7098 d0bc 8f64 833d eef9 7ebf 82d0 073e
00000180: ae6c 15bc 8a41 3b3e 2df4 91bd 731b 2cbd
00000190: 2bbf e43c 190e 4d3c fae8 ebbc ff0d 6f3f
000001a0: 0223 b5bd 76e3 8bbd 6e0e 2f3e 15d1 4f3c
000001b0: 8b89 80bc 8ec8 66be 7d39 d2bb b08b 47bb
000001c0: 8693 333f 5d64 abbd af71 393c e2b8 71be
000001d0: 7c57 393d 74c0 383d 5e36 0fbd 3449 e9bb
000001e0: 6d69 f2bd 8c24 38bf 4a25 9dbe ceaa 8ebb
000001f0: 58c5 8cbe d0bd 3cbe 4dc8 87be 54d9 533f
00000200: 54c0 2a3e cb26 003d c293 af3d bfed e2bd
00000210: 0266 6c3e f739 58bf 3d32 cdbd

features.stage1.unit2.dw_bn2.weight f4 [15]
0.4025015 0.42799434 0.35679755 0.22837862 0.48227957 0.4778673 0.2582779 0.34339598
0.26615816 0.21491489 0.35433713 0.25911203 0.38694984 0.47704983 0.22854538
00000000: ad14 ce3e 1322 db3e 2bae b63e 16dc 693e
00000010: 59ed f63e 06ab f43e 003d 843e 99d1 af3e
00000020: e245 883e a612 5c3e ad6b b53e 55aa 843e
00000030: 4a1e c63e e03f f43e cd07 6a3e

features.stage1.unit2.dw_bn2.bias f4 [15]
0.0041641365 -0.09088646 -0.04297539 -0.021563126 0.100033134 -0.03418074 -0.093485914 -0.14972131
-0.075966395 0.018448561 -0.012907088 0.050605446 0.012335803 0.11416762 0.046070516
00000000: 4f73 883b ae22 babd f606 30bd 27a5 b0bc
00000010: 2cde cc3d 1b01 0cbd 8b75 bfbd 8b50 19be
00000020: 4594 9bbd 7021 973c 4078 53bc a847 4f3d
00000030: 1c1c 4a3c b7d0 e93d 70b4 3c3d

features.stage1.unit2.dw_bn2.running_mean f4 [15]
-0.05146155 -0.02506369 0.049469844 0.1694934 -0.27934042 -0.0057177655 -0.023980465 -0.080698915
-0.031401604 0.01591921 -0.17298688 0.26506516 0.034333345 -0.34277174 0.0051852358
00000000: 59c9 52bd 5e52 cdbc e4a0 4a3d ae8f 2d3e
00000010: b505 8fbe 185c bbbb ae72 c4bc 7945 a5bd
00000020: f89e 00bd 0169 823c 7923 31be 9fb6 873e
00000030: 1fa1 0c3d c77f afbe e9e8 a93b

features.stage1.unit2.dw_bn2.running_var f4 [15]
0.012733028 0.04220034 0.017338356 0.020240355 0.042768255 0.018837707 0.031219639 0.016363408
0.011699547 0.016443383 0.016409134 0.03900785 0.003896076 0.12868626 0.04177567
00000000: 319e 503c 44da 2c3d 2b09 8e3c 1acf a53c
00000010: c42d 2f3d 8951 9a3c 54c0 ff3c 8e0c 863c
00000020: 75af 3f3c 46b4 863c 736c 863c b2c6 1f3d
00000030: 4f55 7f3b 55c6 033e f71c 2b3d

features.stage1.unit2.expand_conv3.weight f4 [60, 5, 1, 1]
0.5178107 -0.09399438 0.049505632 0.06581927 -0.046414573 0.007889025 0.0029880512 0.6163244
0.013390533 -0.0044620372 -0.022945538 -0.0024988803 0.16879147 -0.17047654 -0.17553155 -0.10790689
0.1636305 -0.02473713 -0.19230348 0.09468873 -0.10927595 0.029314868 -0.21229318 -0.037196152
0.068661764 0.094819225 -0.16054498 0.002054524 0.08186386 0.03454071 -0.3613915 0.14671446
-0.014210856 -0.03211698 -0.11192168 0.12246239 -0.025632124 -0.16282083 -0.15396352 -0.06482555
-0.12671527 0.35687187 0.026968714 -0.07436188 -0.18476532 0.12285792 -0.15444167 0.038777143
0.15377878 -0.28879225 -0.32793888 -0.21349289 -0.07065032 -0.11747718 -0.039787736 0.09671035
0.24914896 0.020713372 0.12518398 0.35331735 -0.17255059 -0.15350455 -0.09219037 0.116307236
-0.19335504 -0.108998224 -0.48339245 0.003953205 0.016163612 0.19313271 -0.07067924 0.036000617
-0.0051489505 0.54723454 -0.2130306 -0.12429137 -0.1133988 0.00046062266 0.05704358 0.47807938
0.023585776 -0.13874398 -0.42272115 0.04795565 -0.09354622 -0.04966719 0.04162351 0.011420467
-0.2945279 0.5184512 0.018013785 0.16224556 0.01399726 -0.017736297 0.2157559 -0.053845864
0.24723934 0.040315956 0.18852577 0.057806358 -0.39287436 0.22094554 -0.06400813 -0.23166183
0.08898538 0.08932354 0.024864325 -0.27764568 0.028490743 0.23688026 0.0070216516 -0.16049714
0.016737297 -0.03448516 -0.0636251 -0.03919427 -0.049668297 -0.05758959 -0.05823639 0.18697695
-0.04733894 -0.26558927 -0.030592948 -0.02482638 0.13852747 0.031098822 -0.0833955 0.618222
0.17539264 0.1592636 -0.029421262 0.030688332 0.0009078927 0.44058993 -0.022069532 0.124990985
0.19417787 0.24168324 0.02831851 -0.23918062 -0.05999656 -0.2967735 0.09627199 0.011160779
-0.46185914 -0.0023599714 -0.023570653 -0.011874331 -0.43405664 -0.014938271 -0.15267402 0.116550766
0.14816543 -0.010819411 0.2469726 0.06526711 0.025895922 -0.65021294 0.041142423 0.011344659
0.37507617 0.20574814 -0.05956456 0.01067516 0.015405956 -0.61113775 -0.13628145 -0.004977915
-0.13292612 -0.06541274 0.010270705 -0.19525339 -0.10232382 -0.2513135 0.048703715 0.0064205043
0.00010514505 -0.011552106 0.41062674 0.023474457 -0.14881204 0.53642714 0.07586237 0.022723796
0.09558625 -0.11070496 0.17477116 -0.13159738 -0.011787735 -0.3660304 -0.13074167 0.015093662
-0.063853204 0.14338218 0.064218536 0.2515735 0.009943179 0.037589792 0.08078544 -0.042081643
-0.17372774 0.022588419 0.50314605 0.026150057 -0.033982966 0.1895838 0.0010397647 0.42177013
0.06384958 -0.0062150615 -0.003580614 0.008233183 0.024254775 0.014704074 -0.5841833 0.019726995
-0.5496862 -0.0071745417 -0.16847087 0.07766295 -0.19772065 -0.12257779 0.06829008 0.06484495
-0.021338392 0.0065646917 0.56885165 0.008373492 0.34586444 0.011530693 0.5203778 0.0343915
-0.045144875 0.006985331 0.019180167 -0.025812492 0.074087165 -0.019631179 -0.116453804 0.5543638
-0.26711145 -0.01441495 -0.071285725 -0.025477573 0.010549438 0.016881598 -0.02027601 0.084008604
0.113431424 -0.17869912 -0.49944738 0.018564468 -0.047784004 0.07284357 -0.02861747 -0.10967296
00000000: 3e8f 043f 2080 c0bd 6bc6 4a3d 41cc 863d
00000010: 351d 3ebd f840 013c 2ed3 433b 70c7 1d3f
00000020: f763 5b3c 4836 92bb 48f8 bbbc 41c4 23bb
00000030: acd7 2c3e 6791 2ebe 8bbe 33be 4afe dcbd
00000040: c18e 273e 86a5 cabc 34eb 44be 2aec c13d
00000050: 12cc dfbd bc25 f03c 6263 59be fe5a 18bd
00000060: 8a9e 8c3d 9530 c23d e765 24be 31a5 063b
00000070: 3da8 a73d 8f7a 0d3d 4f08 b9be 513c 163e
00000080: a6d4 68bc 188d 03bd 3237 e5bd 90cd fa3d
00000090: 76fa d1bc 81ba 26be 9da8 1dbe 42c3 84bd
000000a0: a6c1 01be e9b7 b63e 7eed dc3c 0b4b 98bd
000000b0: 1f33 3dbe ef9c fb3d f525 1ebe c8d4 1e3d
000000c0: 2f78 1d3e 94dc 93be 9be7 a7be e19d 5abe
000000d0: 1db1 90bd e097 f0bd 77f8 22bd 1310 c63d
000000e0: e820 7f3e 17af a93c 3b30 003e 03e6 b43e
000000f0: 1ab1 30be 4c30 1dbe 4ece bcbd 7d32 ee3d
00000100: ddfe 45be 763a dfbd 377f f7be e389 813b
00000110: 8d69 843c 95c4 453e 47c0 90bd 6275 133d
00000120: 87b8 a8bb 9017 0c3f b224 5abe 798c febd
00000130: a13d e8bd ba7f f139 87a6 693d d2c6 f43e
00000140: f536 c13c e712 0ebe e86e d8be 256d 443d
00000150: 2995 bfbd d36f 4bbd 6a7d 2a3d e91c 3b3c
00000160: 5ccc 96be 38b9 043f a591 933c b323 263e
00000170: c354 653c b64b 91bc 1def 5c3e 7b8d 5cbd
00000180: 4f2c 7d3e 5822 253d e60c 413e 5cc6 6c3d
00000190: d426 c9be 8c3f 623e b216 83bd c238 6dbe
000001a0: f83d b63d 43ef b63d 45b0 cb3c 9327 8ebe
000001b0: 6b65 e93c bd90 723e e215 e63b 5d59 24be
000001c0: a81c 893c 5040 0dbd e04d 82bd 2c8a 20bd
000001d0: fc70 4bbd 10e3 6bbd 4889 6ebd e376 3f3e
000001e0: 7ae6 41bd 51fb 87be 109e fabc b160 cbbc
000001f0: 25da 0d3e f5c2 fe3c 43cb aabd cc43 1e3f
00000200: 219a 333e ff15 233e dc04 f1bc 1966 fb3c
00000210: a6ff 6d3a 0195 e13e 2acb b4bc 46fb ff3d
00000220: 90d6 463e d07b 773e 38fc e73c c4eb 74be
00000230: f4be 75bd b2f2 97be 402a c53d b3db 363c
00000240: cd78 ecbe c0a9 1abb 3e17 c1bc 8e8c 42bc
00000250: ac3c debe a6bf 74bc 9456 1cbe 2bb2 ee3d
00000260: aeb8 173e e643 31bc 63e6 7c3e c3aa 853d
00000270: af23 d43c 5b74 26bf f584 283d f3de 393c
00000280: fc09 c03e a4af 523e f8f9 73bd dee6 2e3c
00000290: 4369 7c3c 8673 1cbf 5d8d 0bbe c71d a3bb
000002a0: c91d 08be 1df7 85bd 7646 283c 81f0 47be
000002b0: 278f d1bd 2aac 80be 8c7d 473d 1863 d23b
000002c0: 5281 dc38 0b45 3dbc ab3d d23e 814d c03c
000002d0: 2f62 18be 4a53 093f bb5d 9b3d 4127 ba3c
000002e0: b9c2 c33d 48b9 e2bd 36f7 323e 77c1 06be
000002f0: 5821 41bc 5668 bbbe 25e1 05be 684b 773c
00000300: 78c5 82bd c7d2 123e 0285 833d 3ece 803e
00000310: b7e8 223c c1f7 193d d672 a53d cd5d 2cbd
00000320: afe5 31be 590b b93c 2ece 003f a538 d63c
00000330: b931 0bbd 4122 423e b748 883a 41f2 d73e
00000340: 92c3 823d b7a7 cbbb bca8 6abb 79e4 063c
00000350: f3b1 c63c 5be9 703c 098d 15bf 829a a13c
00000360: 3cb8 0cbf 6b18 ebbb a183 2cbe c10d 9f3d
00000370: 4877 4abe 100a fbbd abdb 8b3d 6ecd 843d
00000380: dacd aebc a01c d73b 43a0 113f f930 093c
00000390: 2515 b13e 3beb 3c3c 7b37 053f 1ade 0c3d
000003a0: d5e9 38bd 34e5 e43b ba1f 9d3c b874 d3bc
000003b0: 03bb 973d 91d1 a0bc 557f eebd c9ea 0d3f
000003c0: d5c2 88be af2c 6cbc 40fe 91bd 58b6 d0bc
000003d0: 8dd7 2c3c 474b 8a3c e019 a6bc b40c ac3d
000003e0: bc4e e83d e7fc 36be 91b7 ffbe 8314 983c
000003f0: 29b9 43bd 022f 953d 2f6f eabc 389c e0bd

features.stage1.unit2.expand_bn3.weight f4 [60]
0.39820644 0.43916112 0.2526993 0.13059863 -0.17449802 0.08591355 0.31388924 0.08111523
0.3119894 0.22075106 0.21988761 0.42673248 0.3098435 0.5698837 0.16905092 0.5065307
0.16875367 0.497762 0.32223037 0.52382535 0.27216658 0.31994542 0.16917735 -0.06904595
0.2169942 0.0663048 0.21094263 0.20281048 0.35507348 0.13981639 0.32645798 0.10380647
0.43680564 0.4602319 0.07844288 0.05004963 0.2531549 0.29781348 0.14094552 0.29588625
0.8646232 0.83991045 0.79607004 0.25444832 0.11249254 0.6587838 0.7111913 0.4035279
0.10928143 0.12979403 0.6130806 0.3055329 0.43508065 0.68358016 0.11363214 0.331817
0.11551738 -0.052208297 0.11314426 0.081522085
00000000: b7e1 cb3e bad9 e03e cd61 813e a6bb 053e
00000010: 9caf 32be 71f3 af3d 17b6 a03e be1f a63d
00000020: 13bd 9f3e 910c 623e 382a 613e ae7c da3e
00000030: cfa3 9e3e e6e3 113f af1b 2d3e ffab 013f
00000040: c3cd 2c3e a9da fe3e 61fb a43e 6b19 063f
00000050: 6b59 8b3e e3cf a33e d43c 2d3e f767 8dbd
00000060: ba33 5e3e d0ca 873d 5801 583e 8dad 4f3e
00000070: 31cc b53e 072c 0f3e 8025 a73e 7d98 d43d
00000080: fda4 df3e 84a3 eb3e a9a6 a03d d700 4d3d
00000090: 859d 813e 027b 983e 0654 103e 677e 973e
000000a0: f257 5d3f 5f04 573f 3fcb 4b3f 0d47 823e
000000b0: 7d62 e63d 0ea6 283f a210 363f 359b ce3e
000000c0: f1ce df3d bae8 043e daf2 1c3f cf6e 9c3e
000000d0: e4c2 de3e 1cff 2e3f f8b7 e83d ebe3 a93e
000000e0: 6094 ec3d 5ed8 55bd 2eb8 e73d 0df5 a63d

features.stage1.unit2.expand_bn3.bias f4 [60]
0.00068008347 0.11888227 0.102077514 -0.14048575 -0.17510635 -0.14380203 -0.36105776 -0.37448144
0.14417882 -0.24496481 0.05303632 0.120386146 -0.5565201 -0.22207908 0.19799852 -0.1559259
0.26661333 -0.47411177 -0.2686519 -0.85366607 -0.023235874 -0.099260144 -0.38001776 0.34908617
0.44011927 0.10976405 -0.0010188869 -0.15953031 -0.21039182 -0.02342812 -0.17011516 -0.19095898
0.12463014 0.02344965 0.36404312 -0.09313681 0.8604072 -0.13837686 -0.2541274 -0.18177819
0.14846285 -0.17950082 -0.10057964 -0.10659375 -0.25739622 -0.38408223 0.040589232 -0.27381536
0.86584264 -0.06767296 0.0056520468 -0.030385688 0.42614552 -0.042482562 0.48288953 0.32746923
0.5618678 -0.47989723 -0.03944763 -0.08572551
00000000: a147 323a 8c78 f33d 040e d13d 7fdb 0fbe
00000010: 144f 33be d740 13be 90dc b8be 08bc bfbe
00000020: 9da3 133e 0ed8 7abe 9d3c 593d 038d f63d
00000030: 1a78 0ebf b368 63be 20c0 4a3e 0aab 1fbe
00000040: 8b81 883e c7be f2be be8c 89be dc89 5abf
00000050: 2959 bebc e748 cbbd b091 c2be 6cbb b23e
00000060: 5057 e13e f9cb e03d 2c8c 85ba ea5b 23be
00000070: f470 57be 54ec bfbc ab32 2ebe c08a 43be
00000080: 163e ff3d 7b19 c03c dc63 ba3e 83be bebd
00000090: a543 5c3f aab2 0dbe fd1c 82be 1024 3abe
000000a0: a506 183e 10cf 37be b3fc cdbd d34d dabd
000000b0: 70c9 83be 6da6 c4be e540 263d 8731 8cbe
000000c0: dda7 5d3f 1f98 8abd ce34 b93b 68eb f8bc
000000d0: bf2f da3e 3202 2ebd 4c3d f73e 0caa a73e
000000e0: 91d6 0f3f 17b5 f5be d793 21bd db90 afbd

features.stage1.unit2.expand_bn3.running_mean f4 [60]
0.0025235305 -0.027357597 -0.02093656 -0.00068763626 0.01364975 0.016555987 -0.024685523 0.006649163
-0.050908756 -0.019288251 0.01956946 0.009510555 -0.004717445 0.06212892 -0.036298186 0.056219943
0.020434212 0.05354359 0.00669869 -0.022617806 0.021576518 0.038440328 0.013631421 0.02252469
0.03547093 -0.09613469 -0.035890225 -0.06515031 0.005846409 0.03670848 -0.022441613 0.08978126
-0.023662029 0.04315121 0.053136967 -0.029306369 -0.056402996 0.0011433214 0.002933369 -0.022000238
0.010847523 0.009636454 -0.024417201 -0.043876313 0.0036184094 0.06889668 -0.003820441 0.016015178
-0.0005315397 0.004502927 0.013865268 0.050359637 0.026677875 0.071814336 0.04384862 -0.014344937
0.033978216 0.016603796 -0.015861975 0.0023694395
00000000: d161 253b 0a1d e0bc 2683 abbc 7d42 34ba
00000010: 33a3 5f3c 6ca0 873c 4b39 cabc 39e1 d93b
00000020: b385 50bd 6502 9ebc 2250 a03c 29d2 1b3c
00000030: cc94 9abb e57a 7e3d 68ad 14bd e246 663d
00000040: a665 a73c 8650 5b3d af80 db3b fa48 b9bc
00000050: 3dc1 b03c 9b73 1d3d 5356 5f3c b385 b83c
00000060: f749 113d 44e2 c4bd a101 13bd 876d 85bd
00000070: 3c93 bf3b a25b 163d 79d7 b7bc 3ddf b73d
00000080: dfd6 c1bc 53bf 303d 26a6 593d e913 f0bc
00000090: d406 67bd 80db 953a c43d 403b d839 b4bc
000000a0: cfb9 313c 38e2 1d3c 9506 c8bc a6b7 33bd
000000b0: d622 6d3b b419 8d3d 5d60 7abb 4332 833c
000000c0: 0757 0bba 4a8d 933b 262b 633c e845 4e3d
000000d0: 8f8b da3c 6513 933d 9c9a 333d 0707 6bbc
000000e0: be2c 0b3d af04 883c f9f0 81bc 9948 1b3b

features.stage1.unit2.expand_bn3.running_var f4 [60]
0.046091978 0.04837592 0.015176607 0.009845933 0.009846267 0.0060907356 0.02210001 0.010419888
0.030491464 0.028136706 0.0242183 0.043920085 0.016851084 0.054256752 0.01741754 0.06663942
0.028248023 0.057042923 0.016025143 0.015705092 0.044533342 0.010837216 0.0020101902 0.0023187073
0.0062410855 0.05742083 0.013862195 0.01406617 0.016047744 0.013769318 0.009369347 0.04799314
0.034490254 0.091807246 0.008994279 0.012056737 0.023381809 0.018341815 0.005523135 0.015703777
0.043764185 0.029766353 0.017357621 0.021213561 0.007967641 0.038652506 0.035163023 0.0141214235
0.009493173 0.0038995754 0.03145464 0.031679463 0.017539456 0.11296245 0.019675246 0.008963109
0.020611962 0.005443933 0.002240139 0.009049059
00000000: f1ca 3c3d d425 463d 4ea7 783c d650 213c
00000010: 3d52 213c cb94 c73b 150b b53c 2eb8 2a3c
00000020: 3cc9 f93c f37e e63c 7565 c63c 8ce5 333d
00000030: 490b 8a3c 543c 5e3d 3baf 8e3c 407a 883d
00000040: 6668 e73c d7a5 693d 2947 833c f7a7 803c
00000050: 9868 363d 948e 313c 65bd 033b 74f5 173b
00000060: 0582 cc3b 1b32 6b3d 431e 633c cb75 663c
00000070: 8f76 833c b598 613c e481 193c 7494 443d
00000080: a745 0d3d 7005 bc3d be5c 133c 9f89 453c
00000090: 358b bf3c 9341 963c 6afb b43b 35a5 803c
000000a0: 1342 333d 91d8 f33c 9231 8e3c 10c8 ad3c
000000b0: b58a 023c 1752 1e3d 1a07 103d 8b5d 673c
000000c0: 4189 1b3c 0590 7f3b 95d6 003d 53c2 013d
000000d0: e8ae 8f3c db58 e73d fb2d a13c 01da 123c
000000e0: 6bda a83c 0563 b23b 4ccf 123b 8142 143c
